…
============
Bi-LSTM MODEL SUMMARY
================================================================================

Total Parameters: 1,424,387
Trainable Parameters: 1,424,387
Non-trainable Parameters: 0

Model Architecture:
--------------------------------------------------------------------------------
Model: "BiLSTM_Sentiment"
┏━━━━━━━━━━━━━━━━━━━━━━━━━━━━━━━━━┳━━━━━━━━━━━━━━━━━━━━━━━━┳━━━━━━━━━━━━━━━┓
┃ Layer (type)                    ┃ Output Shape           ┃       Param # ┃
┡━━━━━━━━━━━━━━━━━━━━━━━━━━━━━━━━━╇━━━━━━━━━━━━━━━━━━━━━━━━╇━━━━━━━━━━━━━━━┩
│ embedding (Embedding)           │ (None, 69, 128)        │     1,280,000 │
├─────────────────────────────────┼────────────────────────┼───────────────┤
│ spatial_dropout1d               │ (None, 69, 128)        │             0 │
│ (SpatialDropout1D)              │                        │               │
├─────────────────────────────────┼────────────────────────┼───────────────┤
│ bilstm_1 (Bidirectional)        │ (None, 69, 128)        │        98,816 │
├─────────────────────────────────┼────────────────────────┼───────────────┤
│ dropout (Dropout)               │ (None, 69, 128)        │             0 │
├─────────────────────────────────┼────────────────────────┼───────────────┤
│ bilstm_2 (Bidirectional)        │ (None, 64)             │        41,216 │
├─────────────────────────────────┼────────────────────────┼───────────────┤
│ dropout_1 (Dropout)             │ (None, 64)             │             0 │
├─────────────────────────────────┼────────────────────────┼───────────────┤
│ dense_1 (Dense)                 │ (None, 64)             │         4,160 │
├─────────────────────────────────┼────────────────────────┼───────────────┤
│ dropout_2 (Dropout)             │ (None, 64)             │             0 │
├─────────────────────────────────┼────────────────────────┼───────────────┤
│ output (Dense)                  │ (None, 3)              │           195 │
└─────────────────────────────────┴────────────────────────┴───────────────┘
 Total params: 4,273,163 (16.30 MB)
 Trainable params: 1,424,387 (5.43 MB)
 Non-trainable params: 0 (0.00 B)
 Optimizer params: 2,848,776 (10.87 MB)


================================================================================
MODEL CONFIGURATION
================================================================================
…
